05-03-03-17_bs8_epoch50_lr0.000500_lw0.000000/best_net.pth (torch_old, 10809 bytes, 20 tensors)

main.0.conv2d.weight f4 [24, 1, 3, 3]
0	0xbd93b9a9	-0.07213146
1	0x3eca0d68	0.39463353
2	0x3e01500c	0.12628192
3	0x3ec27fa8	0.3798802
4	0x3ea67c6a	0.32516795
5	0x3d988008	0.07446295
6	0xbe2f9655	-0.17147191
7	0x3e3e49d9	0.18582858
8	0xbe3921e4	-0.18079334
9	0x3eac3885	0.3363687
10	0x3f015afc	0.50529456
11	0xbeb5770e	-0.35442394
12	0xbd8e57c6	-0.06950335
13	0xbdf46e47	-0.11935096
14	0xbecac00e	-0.3959965
15	0xbf0a51a1	-0.54030806
16	0x3d9c2c8b	0.076256834
17	0x3cf7e235	0.030259231
18	0x3e02e905	0.12784202
19	0xbe8d4acd	-0.2759613
20	0x3e8d43e9	0.27590874
21	0xbf5e89d7	-0.86929077
22	0xbeb2aecf	-0.34898993
23	0xbe8ef88e	-0.27924007
24	0xbea677c1	-0.3251324
25	0x3dbea12c	0.09308085
26	0x3f2e81b0	0.6816664
27	0xbe2e1476	-0.16999993
28	0xbf2ac183	-0.66701525
29	0x3c546a34	0.012964774
30	0xbcdeecd2	-0.027212534
31	0xbe34caba	-0.17655459
32	0xbd0c2a3a	-0.034219958
33	0x3e54e60e	0.20790884
34	0x3eb3d5c2	0.35124022
35	0xbdeea875	-0.116532244
36	0xbec8962c	-0.39177072
37	0xbc957a41	-0.018246772
38	0xbf677e64	-0.9042723
39	0x3d7645a6	0.060125016
40	0x3f03e0aa	0.51514685
41	0x3f001197	0.5002684
42	0x3ea5f77b	0.32415375
43	0xbe46eda2	-0.19426587
44	0x3f8bb208	1.0913706
45	0xbdf3b5af	-0.11899888
46	0x3e1adcf4	0.1512335
47	0x3d789724	0.060691014
48	0x3ec3caa0	0.38240528
49	0x3ef80035	0.48437658
50	0xbf0bc0e6	-0.54591215
51	0x3f1df490	0.617013
52	0x3ed52d86	0.41636294
53	0xbeb0f235	-0.3455979
54	0xbd5a76eb	-0.053336065
55	0x3ed6f092	0.41980416
56	0x3ece28ce	0.40265507
57	0x3eda1e90	0.42601442
58	0xbf78de61	-0.97214323
59	0xbf61d6cb	-0.88218373
60	0x3bd45607	0.006479982
61	0xbf1a6b96	-0.60320413
62	0xbec4f92e	-0.3847136
63	0x3ea5115c	0.32239807
64	0x3f811c6f	1.0086802
65	0xbf6a906c	-0.9162662
66	0x3f3bb12f	0.73317236
67	0x3e9927d3	0.29913196
68	0xbe0f8c91	-0.14018466
69	0xbede109f	-0.43372056
70	0x3ebf2062	0.37329394
71	0x3da5c242	0.08093692
72	0xbed5a1ee	-0.41725105
73	0x3d32061c	0.043462858
74	0xbf3864f1	-0.72029024
75	0x3e177c05	0.14793403
76	0xbd671f23	-0.05642618
77	0xbf9ea6e4	-1.2394681
78	0x3e4ba98a	0.19888893
79	0x3cb84dee	0.022498097
80	0xbf2de18a	-0.6792227
81	0x3ed1daa5	0.40987125
82	0x3f4061b1	0.75149065
83	0xbe866060	-0.26245403
84	0x3f03f12a	0.5153986
85	0xbd2705f1	-0.04077715
86	0x3e480fe8	0.19537318
87	0xbec520cd	-0.38501588
88	0x3f886d42	1.0658343
89	0xbebea481	-0.37234882
90	0xbf767d4a	-0.96284926
91	0xbe0f7bad	-0.14012022
92	0x3eb305c8	0.34965348
93	0xbbaa2223	-0.0051920577
94	0x3efc5981	0.49287036
95	0x3ec30e91	0.3809705
96	0x3eac5b8b	0.33663592
97	0x3de7f846	0.11326651
98	0x3e9d3034	0.3070084
99	0xbe9b35ef	-0.30314586
100	0x3ecbd962	0.39814287
101	0xbc35efee	-0.011104567
102	0x3f652433	0.8950836
103	0x3db79014	0.089630276
104	0x3eb25db3	0.34837112
105	0x3f30387e	0.688362
106	0xbee676c8	-0.45012498
107	0xbd9abcd2	-0.07555546
108	0xbe7b150f	-0.24519752
109	0x3d57c9d2	0.052682705
110	0x3f07566b	0.5286624
111	0x3f582043	0.8442423
112	0xbe5755a7	-0.21028768
113	0xbd99d853	-0.07511964
114	0x3e22eb61	0.15910102
115	0x3e632163	0.22180705
116	0xbf09fa20	-0.53897285
117	0x3f3ce7f3	0.73791426
118	0xbf8d88cc	-1.1057372
119	0x3d93ba44	0.07213262
120	0x3f31764a	0.6932112
121	0x3e505b3f	0.20347308
122	0x3d2fb588	0.04289773
123	0xbe6ad673	-0.22933368
124	0xbe9d96a3	-0.3077899
125	0xbf3303ee	-0.6992787
126	0xbee2f760	-0.44329357
127	0xbf6a1887	-0.91443676
128	0xbf8ab845	-1.0837485
129	0xbeb3a49b	-0.35086522
130	0x3ebe9f88	0.37231088
131	0x3e625ab5	0.22104914
132	0xbe4b02c1	-0.1982527
133	0x3d180479	0.03711364
134	0x3f1abb63	0.6044218
135	0xbe5a1f68	-0.21301043
136	0x3f01c0a9	0.506846
137	0xbefd2ee9	-0.49449852
138	0xbcd69420	-0.026193678
139	0xbd310fa2	-0.0432278
140	0x3ec3e387	0.38259527
141	0xbf778693	-0.9668972
142	0xbf37ce2b	-0.7179896
143	0xbed45b80	-0.4147606
144	0xbbb8088b	-0.005616253
145	0xbea5fb0a	-0.3241809
146	0xbe688d84	-0.22710234
147	0x3eccb05c	0.39978302
148	0xbd29e208	-0.041475326
149	0xbe847002	-0.25866705
150	0xbe504bb4	-0.20341378
151	0x3eea196c	0.4572252
152	0x3c0b0b83	0.008486631
153	0xbf57b1b9	-0.8425556
154	0xbebd2de8	-0.36949086
155	0x3e514874	0.20437795
156	0x3ef5f586	0.48038882
157	0xbdddac29	-0.108238526
158	0xbf27ddf3	-0.6557304
159	0x3e9cc068	0.30615544
160	0xbf20b7ff	-0.62780756
161	0xbf54b9fb	-0.83096284
162	0xbf2dc983	-0.6788561
163	0xbf42e175	-0.7612527
164	0xbe7a3f18	-0.24438131
165	0x3e7918f9	0.24325933
166	0x3dee57da	0.1163785
167	0x3ea7a4b6	0.32742852
168	0xbeb338b3	-0.35004196
169	0xbe0b186c	-0.13583535
170	0x3ef3d72b	0.47625098
171	0x3f2a9d43	0.6664621
172	0xbf0feadc	-0.5621774
173	0xbe910a41	-0.28328136
174	0xbedaa96a	-0.42707378
175	0x3de62da6	0.112391755
176	0xbf27ab2b	-0.65495557
177	0xbe6f1111	-0.23346354
178	0x3e9dff77	0.30858967
179	0x3d5f29dc	0.05448328
180	0xbe8e67fc	-0.2781371
181	0xbd28f3bf	-0.04124808
182	0xbe6787ce	-0.22610399
183	0xbf5e6988	-0.8687978
184	0x3d64bbaf	0.05584305
185	0xbd7643e7	-0.06012335
186	0xbe37bbf1	-0.17942788
187	0xbe85931f	-0.26088807
188	0x3e57e381	0.2108288
189	0x3ebbdf0e	0.36693615
190	0x3ea49f4b	0.3215278
191	0x3f84be46	1.0370567
192	0x3f1e1725	0.61754066
193	0x3e8ccf8f	0.27502105
194	0xbf38e473	-0.72223586
195	0xbf1bf779	-0.6092449
196	0x3de10df6	0.10988991
197	0xbe958c91	-0.29208806
198	0xbd3685e9	-0.0445613
199	0xbe328320	-0.17432833
200	0xbecd04f7	-0.4004285
201	0x3db52857	0.08845585
202	0x3f2c061b	0.67196816
203	0xbdecacda	-0.11556406
204	0x3da4e0ea	0.080507115
205	0xbe1c1b55	-0.15244801
206	0x3c347926	0.011015212
207	0xbea165b6	-0.31522912
208	0x3e3d730c	0.18500918
209	0xbe89af5b	-0.26891598
210	0xbe1bd2f7	-0.15217195
211	0x3efeffc2	0.49804503
212	0xbe367ada	-0.17820302
213	0x3ed2c41d	0.41165248
214	0xbe8c8dff	-0.27452084
215	0xbed46dab	-0.4148992

main.1.weight f4 [24]
0	0x3f7b0c70	0.98065853
1	0x3f74afab	0.9558055
2	0x3f7405ab	0.9532115
3	0x3f70af20	0.9401722
4	0x3f630663	0.8868162
5	0x3f7ba0b3	0.9829208
6	0x3f150ad7	0.58219665
7	0x3f7e8a5a	0.9942986
8	0x3f796fd2	0.9743625
9	0x3f7b83bd	0.9824789
10	0x3f7e103e	0.99243534
11	0x3f7aeb2e	0.98015106
12	0x3f76b6ab	0.9637248
13	0x3f7c3b6f	0.9852819
14	0x3f7fbc33	0.99896544
15	0x3f7f825d	0.99808294
16	0x3f6a2ac0	0.9147148
17	0x3f83a266	1.0283935
18	0x3f834e4b	1.0258268
19	0x3f690b53	0.91032904
20	0x3f7c7de5	0.986296
21	0x3f7a9b6e	0.97893417
22	0x3f6ec29d	0.93265706
23	0x3f701caa	0.9379374

main.1.bias f4 [24]
0	0x3edfd274	0.4371525
1	0x3f198e21	0.59982497
2	0x3ef788dc	0.48346603
3	0xbf0cad84	-0.54952264
4	0xbf09e0f4	-0.53858876
5	0x3ee2439a	0.441922
6	0xbf10cbe1	-0.56561095
7	0xbecf43eb	-0.40481505
8	0x3ec4db37	0.38448498
9	0x3ef797f1	0.4835811
10	0xbec7c901	-0.3902054
11	0x3eeb9e6c	0.46019304
12	0xbf028e3e	-0.50998294
13	0xbeced2e7	-0.4039528
14	0x3e904ec7	0.28185102
15	0x3ecd3547	0.4007971
16	0x3ee80412	0.45315605
17	0x3ebedc9f	0.37277696
18	0xbe698d17	-0.22807728
19	0xbf0a59b4	-0.54043126
20	0x3ecbb80d	0.39788857
21	0xbee1ad13	-0.44077358
22	0xbe4e0678	-0.20119655
23	0xbee85f0c	-0.45385015

main.1.running_mean f4 [24]
0	0x3ed36173	0.41285285
1	0xbe539a23	-0.20664267
2	0xbeb776db	-0.35832867
3	0xbe7623d6	-0.24037108
4	0x3ec400e8	0.3828194
5	0x3edaeb8f	0.42757842
6	0xbf232e29	-0.6374231
7	0x3f046666	0.5171875
8	0xbf86c572	-1.0529006
9	0x3f3b4811	0.7315684
10	0x3eadb1fe	0.3392486
11	0x3f1d6f3c	0.61497855
12	0x3e9371fc	0.287979
13	0xbe6b33f8	-0.22969043
14	0xbf2f23e0	-0.68414116
15	0xbf464446	-0.77447927
16	0xbd9ab982	-0.07554914
17	0xbf73c850	-0.9522753
18	0xbec921f5	-0.3928372
19	0xbeca9b68	-0.3957169
20	0xbf2462a2	-0.64213
21	0x3edbf697	0.4296157
22	0xbc7eaf1c	-0.015544679
23	0xbe4a975e	-0.19784304

main.1.running_var f4 [24]
0	0x3dd5d1c3	0.104403995
1	0x3cfc8979	0.03082727
2	0x3db58915	0.08864037
3	0x3d26cd5f	0.0407232
4	0x3de71ec0	0.11285162
5	0x3df16546	0.117868945
6	0x3e86dee5	0.2634193
7	0x3e31a981	0.17349817
8	0x3f2b47f6	0.6690668
9	0x3ea5f0df	0.32410333
10	0x3dabcf9f	0.0838921
11	0x3e6b8756	0.23000845
12	0x3d5e035e	0.05420243
13	0x3d383d75	0.044980485
14	0x3e9aea07	0.30256674
15	0x3ebb18e2	0.36542422
16	0x3bfaab43	0.0076498105
17	0x3f0b081b	0.5430924
18	0x3dd52673	0.10407724
19	0x3dc9789b	0.09837457
20	0x3e7d5fd4	0.24743587
21	0x3e056145	0.13025387
22	0x3b75fbb9	0.0037534072
23	0x3cd0a0c7	0.02546729

main.3.conv.conv_decoder.de_conv0.conv2d.weight f4 [1, 24, 3, 3]
0	0xbd8a7439	-0.06760449
1	0x3e0d2db8	0.13786972
2	0x3b3cd22b	0.0028811793
3	0x3e0ff28f	0.14057373
4	0x3d546cec	0.05186169
5	0x3c598c7f	0.013278126
6	0xbdc15679	-0.094403215
7	0x3beba680	0.007191479
8	0x3d27e61c	0.040990934
9	0xb8023f31	-3.1053267e-05
10	0xbde0ffef	-0.109863155
11	0xbcc195bd	-0.023630971
12	0x3ca19442	0.019724015
13	0xbe161a61	-0.146585
14	0x3de13725	0.10996846
15	0x3e005866	0.12533721
16	0x3dd509e6	0.104022786
17	0x3e1cf0a4	0.15326172
18	0x3d5768f9	0.052590344
19	0xbd7f2537	-0.06229135
20	0xbddda0a9	-0.10821659
21	0x3cc2d063	0.023781007
22	0xbce0fdcc	-0.02746477
23	0xbd09e66c	-0.033667013
24	0xbc51c16d	-0.012802464
25	0xbd2ab99e	-0.041680925
26	0xbcbc1042	-0.022956971
27	0x3c0ebd9a	0.008712197
28	0x3c214ed3	0.009845453
29	0xbdac0e9a	-0.084012225
30	0xbe03448a	-0.12819114
31	0xbdd933b9	-0.106055684
32	0xbd658e44	-0.05604388
33	0x3da31736	0.079634115
34	0xbdd30153	-0.10302987
35	0xbd9af34d	-0.07565937
36	0xbdf35cc7	-0.1188293
37	0xbdb8befd	-0.09020803
38	0xbc315664	-0.01082382
39	0xbe2d814e	-0.16943857
40	0x3ddefe3a	0.108883336
41	0x3e11b1ad	0.14227934
42	0x3d8f2b59	0.0699069
43	0xbdc635b4	-0.09678212
44	0xbb1945aa	-0.002338747
45	0xbc2c41bf	-0.010513722
46	0x3e88125a	0.265765
47	0x3d0c949d	0.034321416
48	0x3c878260	0.01654166
49	0xbddcf0c4	-0.1078811
50	0x3d562e19	0.052290056
51	0x3c90bada	0.017667223
52	0x3e025329	0.12727036
53	0x3d50e1b9	0.050996516
54	0xbddfccab	-0.10927709
55	0x3d9cc550	0.07654822
56	0x3d2dbfec	0.04241936
57	0xbd356e41	-0.0442946
58	0xbd964cd9	-0.07338876
59	0xbdbb9cec	-0.0916079
60	0x3cd7c779	0.026340233
61	0xbde4a00a	-0.111633375
62	0x3d6592af	0.05604809
63	0x3e510294	0.2041114
64	0xbd9087bb	-0.070571385
65	0x3cc06ef9	0.023490416
66	0xbcd64ef3	-0.026160693
67	0xbdacb73f	-0.08433389
68	0x3d9249f7	0.07143014
69	0xbe256280	-0.16150856
70	0xbd54aea6	-0.05192437
71	0xbd588cd4	-0.05286868
72	0x3d640c53	0.055675816
73	0xbe05f624	-0.13082176
74	0x3d876b64	0.0661228
75	0xbcad374d	-0.021144534
76	0xbabe16b8	-0.001450262
77	0xbc8ce5bc	-0.01719939
78	0x3e563eec	0.2092244
79	0xbd1ac52b	-0.03778569
80	0x3e0bcf24	0.13653237
81	0xbd0e1f00	-0.034697533
82	0x3e3fb019	0.1871952
83	0x3d8e6b61	0.06954075
84	0xbd2128ab	-0.039345425
85	0xbc8ade3f	-0.016951678
86	0x3d80dafd	0.06291769
87	0x3e76cbb0	0.24101138
88	0x3d38daa0	0.045130372
89	0x3d5d6a6b	0.054056566
90	0x3d142dc6	0.036176465
91	0x3aa23465	0.0012375234
92	0xbdef42d1	-0.11682666
93	0x3e159785	0.14608581
94	0x3da7e04e	0.081970796
95	0xbde59be4	-0.112113744
96	0x3d9abd2a	0.075556114
97	0x3db808c9	0.08986051
98	0x3c11bdfb	0.0088953925
99	0x3deec59d	0.116587855
100	0x3c6d5f80	0.014488101
101	0x3dee48e5	0.11634997
102	0x3d964f1b	0.07339307
103	0x3ebd7f07	0.37010977
104	0x3d9d867f	0.07691669
105	0xbbf849a9	-0.0075771403
106	0xbdece1d2	-0.11566509
107	0x3db8a159	0.090151496
108	0xbde9426d	-0.11389623
109	0x3e0aafb2	0.13543585
110	0xbc904eea	-0.017615754
111	0xbd9865c8	-0.07441288
112	0x3cb49d9e	0.022047814
113	0x3da00dd6	0.07815139
114	0xbd07848c	-0.03308539
115	0xbe3390a7	-0.17535649
116	0xbc8a644c	-0.016893528
117	0xbe1f6595	-0.15566094
118	0xbe1b2c06	-0.15153512
119	0xbc3aed5c	-0.01140913
120	0xbd981f71	-0.07427872
121	0xbe469168	-0.19391406
122	0xbcc91e01	-0.02455044
123	0x3d9b0d44	0.075708896
124	0x3d592650	0.053015053
125	0x3caa881c	0.020816855
126	0x3e2ad9c2	0.1668463
127	0x3db0c52a	0.08631356
128	0xbd938406	-0.07202916
129	0x3de546fb	0.11195179
130	0xbe0a3b05	-0.13499077
131	0x3c2ff835	0.0107403295
132	0x3d6c1604	0.057638183
133	0xbdf6bf22	-0.120481744
134	0xbdba6b63	-0.09102514
135	0x3cec86eb	0.028872928
136	0x3d139109	0.03602699
137	0xbc3c8f70	-0.011508808
138	0x3db85a22	0.090015665
139	0x3b4e8e4a	0.0031517916
140	0x3d503ef5	0.05084129
141	0xbd92dbe2	-0.071708456
142	0x3c90b1bf	0.017662881
143	0x3d30017a	0.04297016
144	0x3d49bc14	0.04925163
145	0x3cc2d4fc	0.0237832
146	0xbcc70e2b	-0.024298748
147	0x3ddf3c98	0.10900229
148	0xbd2eb461	-0.04265249
149	0xbdf6cca7	-0.12050753
150	0xbd21308f	-0.03935295
151	0xbdd343f8	-0.103156984
152	0x3cc2b8bb	0.023769727
153	0x3d25720e	0.040391974
154	0x3d15c827	0.036567833
155	0x3dc375dd	0.09543965
156	0x3dc6788a	0.0969096
157	0xbd8efa67	-0.06981354
158	0xbdc17075	-0.094452776
159	0xbc506723	-0.012719902
160	0xbdedc98c	-0.11610708
161	0xbd72df82	-0.059295185
162	0xbe2fffa6	-0.17187366
163	0x3db83b71	0.089957125
164	0x3d14d5f2	0.036336847
165	0xbd4d8d7b	-0.050183754
166	0x3d5c7271	0.053820077
167	0xbd1c6940	-0.03818631
168	0x3c71724b	0.014736722
169	0x3d1ac8f9	0.03778932
170	0xbd67b1f0	-0.05656618
171	0x3dedee92	0.11617769
172	0xbd14859f	-0.036260244
173	0x3d544b04	0.051829353
174	0x3d242577	0.04007479
175	0x3d35b703	0.044363987
176	0xbe2c08ae	-0.16800186
177	0xbdaacb43	-0.0833955
178	0x3d99bc97	0.07506674
179	0xbd57093d	-0.052499045
180	0xbdf3c8bc	-0.119035214
181	0x3d28bee5	0.041197676
182	0xbd8288d2	-0.06373753
183	0xbcfbc328	-0.030732706
184	0x3e505a4f	0.2034695
185	0x3de5c043	0.11218312
186	0xbd7193c7	-0.058978822
187	0x3d5e4193	0.054261755
188	0xbe25acb2	-0.1617916
189	0x3dce5fc0	0.100768566
190	0xbdd04a0a	-0.10170372
191	0xbe14b509	-0.14522184
192	0x3d1d455d	0.038396228
193	0xbd7c209a	-0.06155453
194	0xbe85c526	-0.26126975
195	0x3d148dc6	0.03626802
196	0x3ce3430a	0.027741928
197	0xbd376437	-0.044773307
198	0x3b6238d6	0.003451874
199	0x3d641439	0.05568335
200	0xbd643b44	-0.055720583
201	0x3c1bef0e	0.009517444
202	0x3dfb8611	0.122814305
203	0x3dcbc979	0.09950537
204	0xbc1a9ac2	-0.009436311
205	0x3c15e4b9	0.00914877
206	0xbc8ece7c	-0.017432444
207	0xbd75b1ff	-0.059984203
208	0xbd9f9d8a	-0.0779372
209	0x3dcfbc42	0.10143329
210	0xbcdc42fd	-0.026887411
211	0xbde9c0da	-0.11413737
212	0x3dce7d64	0.1008251
213	0xbde51d6c	-0.111872524
214	0x3d2551ca	0.040361203
215	0xbc5bb3b0	-0.01340954

main.3.conv.conv_encoder.en_conv0.conv2d.weight f4 [24, 1, 3, 3]
0	0xbf5465d0	-0.82967854
1	0xbeba2e42	-0.36363417
2	0xbdda5c1e	-0.10662101
3	0x3f571aa9	0.84025055
4	0xbe57a1f3	-0.21057872
5	0x3e81e20b	0.2536777
6	0x3ec66fae	0.3875708
7	0x3f2305f9	0.6368099
8	0xbf3112bd	-0.6916922
9	0xbf4699c4	-0.7757838
10	0x3ea3486b	0.31891188
11	0x3e65ada3	0.22429518
12	0xbf292d5c	-0.6608484
13	0x3eb56e7d	0.35435858
14	0x3e89f104	0.26941693
15	0x3f0e2aa0	0.5553379
16	0xbed82235	-0.42213598
17	0x3f315375	0.6926797
18	0xbe8585e6	-0.2607872
19	0xbf61eb5b	-0.8824975
20	0x3dfeb9fe	0.12437819
21	0xbe33315f	-0.17499302
22	0xbf03805b	-0.5136773
23	0xbf0277c3	-0.5096399
24	0xbebf67da	-0.3738392
25	0xbecc96b4	-0.39958727
26	0x3f59effa	0.851318
27	0x3dc0a8d3	0.09407201
28	0xbf18a518	-0.59626913
29	0x3ebf3b63	0.37349996
30	0x3f0edb6f	0.5580358
31	0x3db48a92	0.08815493
32	0x3c298198	0.010345839
33	0xbf50b035	-0.8151887
34	0x3f3bebde	0.7340678
35	0xbeae8d91	-0.34092382
36	0x3d88d0be	0.066804394
37	0x3de0ba67	0.109730534
38	0x3d1ace90	0.03779465
39	0xbe5ff8aa	-0.21872202
40	0xba9266f1	-0.0011169595
41	0xbf01eec8	-0.50754976
42	0x3e27fe91	0.16405703
43	0xbdee86b9	-0.1164679
44	0xbebc2ff5	-0.36755338
45	0x3e9589a7	0.29206583
46	0xbd2c08c5	-0.04200055
47	0x3ddaa349	0.106756754
48	0xbea42cb9	-0.3206537
49	0x3f2ad7d0	0.66735554
50	0x3dbcbac6	0.09215312
51	0x3f097e94	0.5370877
52	0xbe880536	-0.26566476
53	0x3e25face	0.16208956
54	0x3e8a8964	0.27057946
55	0xbb4bb817	-0.0031085068
56	0xbe654c36	-0.22392353
57	0xbec6489c	-0.38727272
58	0x3e0fac46	0.14030561
59	0x3e0639e3	0.1310802
60	0x3def74a4	0.11692169
61	0xbe379327	-0.17927228
62	0xbd8a56dd	-0.06754849
63	0xbe8c2465	-0.27371517
64	0x3de07224	0.109592706
65	0x3f0815e4	0.531584
66	0x3f3d22ef	0.7388143
67	0xbdaefaf1	-0.08543957
68	0xbde0979e	-0.10966419
69	0xbea1911c	-0.31556022
70	0xbe927042	-0.2860127
71	0x3f52f8b2	0.8241073
72	0x3c25f2d0	0.010128692
73	0xbf02da24	-0.51114106
74	0xbe39a60c	-0.18129748
75	0xbe585fae	-0.21130249
76	0x3e02b529	0.1276442
77	0xbf1856ba	-0.59507334
78	0x3e48987d	0.1958942
79	0x3de7e494	0.11322895
80	0xbebde3e3	-0.37087926
81	0xbf41fd46	-0.7577709
82	0xbd0a07bd	-0.033698786
83	0x3da46e56	0.080288574
84	0xbe277937	-0.16354834
85	0xbeb7164a	-0.35759193
86	0x3e949bdf	0.2902517
87	0x3f4b85dc	0.7950113
88	0x3e350329	0.17676987
89	0x3e8a03ad	0.2695593
90	0x3ecd284b	0.40069804
91	0xbf140d4a	-0.5783278
92	0xbf050c78	-0.5197215
93	0xbd8a76e7	-0.0676096
94	0x3d7e09e5	0.062021155
95	0xbe916acf	-0.284018
96	0x3f02efe7	0.5114731
97	0xbee4cd1a	-0.4468773
98	0x3dcb2f44	0.099211246
99	0x3daaa8b7	0.08332961
100	0xbf47373c	-0.77818656
101	0xbd9fea52	-0.07808365
102	0x3d4bd728	0.049765736
103	0x3f1b83ad	0.60747796
104	0x3d6d7aba	0.05797837
105	0x3f5764ee	0.8413838
106	0xbe9525ee	-0.291305
107	0xbd3b6412	-0.04574973
108	0x3f029d79	0.51021534
109	0xbe1f24e4	-0.15541416
110	0xbf02aaa2	-0.51041615
111	0xbf7d4462	-0.9893247
112	0xbe9e8d1d	-0.30967036
113	0x3db71fed	0.08941636
114	0xbea04eba	-0.31310064
115	0x3e3168af	0.1732509
116	0x3e8746c0	0.26421165
117	0xbee17601	-0.44035342
118	0x3c8a5ece	0.01689091
119	0x3ea7fa19	0.32807997
120	0xbec08111	-0.3759847
121	0x3f9ba481	1.2159578
122	0x3f61fc9c	0.88276076
123	0xbe1ee0de	-0.15515468
124	0xbf24e6bd	-0.6441458
125	0xbeb85925	-0.36005512
126	0x3f151f5a	0.58250964
127	0x3f1b4793	0.6065609
128	0xbd30bdc5	-0.04314973
129	0x3f4380d8	0.76368475
130	0x3e4bc926	0.19900951
131	0x3e1c9892	0.15292576
132	0xbe89a3ff	-0.26882932
133	0xbf5347d2	-0.82531464
134	0x3f201801	0.6253663
135	0xbe725c18	-0.23667943
136	0x3e76c141	0.24097158
137	0xbf7abd91	-0.97945505
138	0x3e85cec4	0.26134312
139	0x3e97e704	0.29668438
140	0x3ee8dc24	0.45480454
141	0xbd13f93b	-0.036126357
142	0x3e88298b	0.26594195
143	0xbe493fc9	-0.19653238
144	0x3ea06b03	0.31331643
145	0xbeaebcb3	-0.3412834
146	0xbec1b2e2	-0.3783179
147	0x3d60bfe2	0.054870494
148	0xbf13519b	-0.57546395
149	0xbf1c3683	-0.6102068
150	0xbe14c004	-0.14526373
151	0x3c6ed6f2	0.014577614
152	0x3e0deef1	0.1386068
153	0x3f1dd9e2	0.6166059
154	0xbefe3c28	-0.4965527
155	0x3e74a3c0	0.2389059
156	0xbd2c907c	-0.04212998
157	0x3d5db62d	0.054128814
158	0xbf1ed3bc	-0.6204183
159	0xbe3f6ab1	-0.18693043
160	0x3f0a3cdd	0.5399912
161	0xbe383251	-0.17987944
162	0xbc2327e9	-0.009958246
163	0x3f58ea50	0.8473253
164	0x3f8b5f7d	1.0888516
165	0xbf03c71f	-0.5147571
166	0x3da0a556	0.07844035
167	0x3f01d033	0.5070831
168	0x3cf720f4	0.03016708
169	0x3f80ccfa	1.0062554
170	0x3dc1503f	0.09439134
171	0xbee5f2ec	-0.44911897
172	0x3ec9a92d	0.39386883
173	0xbf164e51	-0.5871325
174	0xbf4f52b7	-0.8098559
175	0x3d725144	0.059159532
176	0xbdf2eb56	-0.11861293
177	0xbce9586b	-0.028484544
178	0x3ebd8c02	0.3702088
179	0x3f66b427	0.9011864
180	0x3d0f8675	0.035040338
181	0x3f1171b9	0.5681415
182	0xbeb3c19e	-0.35108656
183	0xbf87fa85	-1.0623327
184	0xbd996538	-0.07490009
185	0x3e8e573b	0.27800927
186	0xbe4ca6ce	-0.19985506
187	0xbf015f1e	-0.5053576
188	0x3e54a224	0.20764977
189	0x3ea14c10	0.31503344
190	0xbe8ca58e	-0.27470058
191	0x3f04358c	0.51644206
192	0x3f15d22b	0.58523816
193	0xbf50249f	-0.8130588
194	0x3f4dfded	0.80465585
195	0x3f679ca2	0.9047338
196	0xbd318466	-0.043339156
197	0xbeb2f206	-0.34950274
198	0xbf449703	-0.76792926
199	0xbdef1cc6	-0.1167541
200	0x3e2057f0	0.15658545
201	0x3f00aeab	0.5026652
202	0xbec34607	-0.38139364
203	0xbf8515f9	-1.039733
204	0x3e676801	0.22598268
205	0x3c4b20b9	0.012397938
206	0x3f37fa2d	0.7186611
207	0x3f89725f	1.0738028
208	0x3e3e44fc	0.18581003
209	0xbc3dc181	-0.011581779
210	0x3e1241cc	0.14282912
211	0x3eb3c26a	0.35109264
212	0xbf568567	-0.83797306
213	0x3ef87695	0.4852797
214	0xbe857496	-0.2606551
215	0x3ef6bd65	0.48191372

main.3.norm.weight f4 [24]
0	0x3f6ba889	0.9205404
1	0x3f7ebdfe	0.99508655
2	0x3f70a81c	0.94006515
3	0x3f6f20d9	0.93409497
4	0x3f871d9a	1.0555909
5	0x3f7c8620	0.9864216
6	0x3f849a96	1.0359676
7	0x3f623653	0.8836414
8	0x3f7f6f30	0.99779034
9	0x3f74143e	0.9534339
10	0x3f83ced5	1.0297495
11	0x3f80f528	1.0074816
12	0x3f81a04b	1.0127043
13	0x3f770e6f	0.965064
14	0x3f84b71d	1.0368382
15	0x3f7dd893	0.9915859
16	0x3f80fa46	1.0076377
17	0x3f76700a	0.9626471
18	0x3f81da1b	1.0144686
19	0x3f6e20cc	0.93018794
20	0x3f730400	0.9492798
21	0x3f8130e6	1.0093048
22	0x3f7f13a4	0.99639344
23	0x3f833a9e	1.0252264

main.3.norm.bias f4 [24]
0	0x3ed597d6	0.41717404
1	0x3bf4405d	0.0074539618
2	0x3eee28c9	0.46515492
3	0xbed070e8	-0.4071114
4	0x399247d6	0.00027900812
5	0xbda7e840	-0.08198595
6	0xbe8f832f	-0.28029773
7	0xbb7536d9	-0.0037416725
8	0xbd8a8d22	-0.067652
9	0x3ead37d9	0.3383167
10	0xbe6d9be9	-0.23204006
11	0xbc849e76	-0.016188841
12	0xbbf391a4	-0.007433133
13	0x3eeaf539	0.45890215
14	0x3bbd1998	0.0057708733
15	0xbdc99346	-0.09842543
16	0x3db98452	0.09058441
17	0x3df005db	0.11719867
18	0x3ee97b3d	0.45601836
19	0xbe8978fe	-0.26850122
20	0x3dee198d	0.11625967
21	0xbd0b982f	-0.03408068
22	0xb97f8f16	-0.00024371999
23	0xbc96f692	-0.01842812

main.3.norm.running_mean f4 [24]
0	0x3f022a32	0.50845635
1	0xbe839ee9	-0.25707176
2	0x404f6af9	3.240904
3	0xbf1ef19a	-0.62087405
4	0x3f2ed35b	0.6829125
5	0xbf9e1b81	-1.2352144
6	0xbe08084e	-0.13284418
7	0xbfeaeff1	-1.8354474
8	0x400cf54e	2.2024722
9	0x3cc6af9f	0.024253665
10	0x3f4bb16b	0.79567593
11	0xbe3c4cf4	-0.1838873
12	0x3f9fa91d	1.2473484
13	0xbf7ed398	-0.99541616
14	0xc00bbffd	-2.183593
15	0x3e6be150	0.23035169
16	0x4018af74	2.3857088
17	0x3ecf132b	0.40444311
18	0xc08d56b5	-4.4168344
19	0xbde41ed1	-0.1113869
20	0x3fe49d91	1.7860585
21	0xc0234529	-2.5510962
22	0x3f4a70db	0.79078454
23	0xc023c2ce	-2.558765

main.3.norm.running_var f4 [24]
0	0x3fb52f55	1.415507
1	0x4034cdac	2.8250532
2	0x40af8721	5.485245
3	0x3f6cf735	0.9256471
4	0x40529981	3.2906191
5	0x3f6d9ff3	0.9282219
6	0x3d80fc25	0.06298093
7	0x3f7949a6	0.97378004
8	0x3fd51f04	1.665009
9	0x3f598f49	0.8498426
10	0x406e60d5	3.7246602
11	0x3eb0c5e4	0.3452598
12	0x40bfcff9	5.9941373
13	0x402be1b7	2.6856515
14	0x4127c39f	10.485259
15	0x3f98d2db	1.1939348
16	0x404785ce	3.1175418
17	0x3f1f9468	0.62335825
18	0x41c7bd25	24.967356
19	0x3f4c9ae8	0.7992387
20	0x3f766d6f	0.9626073
21	0x402fedc2	2.7488866
22	0x3fd1c79d	1.6389042
23	0x4106241b	8.383815

main.3.activation.theta f4 [1, 24, 1, 1]
0	0xbcaca2b1	-0.021073671
1	0xbd945f32	-0.072447196
2	0x3e86dc46	0.2633993
3	0x3e6adf70	0.22936797
4	0xbd1f3186	-0.03886559
5	0x3e3cf262	0.18451837
6	0x3dd59729	0.10429222
7	0x3a151145	0.0005686472
8	0x3d98d789	0.07462985
9	0x3e0065d2	0.12538841
10	0x3bf5e722	0.00750436
11	0xbcb2b034	-0.021812536
12	0xbda290fe	-0.07937811
13	0x3c33eab6	0.010981252
14	0xbcf52177	-0.029923184
15	0x3dc0aada	0.09407587
16	0x3e050b63	0.12992625
17	0x3c78b05d	0.015178767
18	0xbcf9b774	-0.030482985
19	0x3d82bf5a	0.06384154
20	0x3d8f4342	0.0699525
21	0x3db28e6f	0.08718573
22	0xbd9798e8	-0.074022114
23	0xbcdf2fba	-0.027244437

main.4.conv.conv_decoder.de_conv0.conv2d.weight f4 [1, 24, 3, 3]
0	0x3de7b011	0.11312879
1	0x3b39b66e	0.0028337496
2	0x3d8d0dcf	0.068873994
3	0x3dd46020	0.10369897
4	0x3dad9ace	0.08476792
5	0xbe285fe7	-0.16442834
6	0xbda06224	-0.07831219
7	0x3b1d009d	0.0023956664
8	0x3ce62d99	0.028097915
9	0x3cdc651a	0.026903678
10	0xbd2f9de5	-0.04287519
11	0xbe1b782b	-0.15182559
12	0xbe3577a5	-0.17721422
13	0xbc8c3d76	-0.01711915
14	0xbd2492e1	-0.040179137
15	0xbd1dc55f	-0.038518306
16	0x3d07a4a6	0.033116005
17	0x3d414b5c	0.04719101
18	0xbddbf265	-0.107395925
19	0x3cef3232	0.02919874
20	0xbe087069	-0.13324131
21	0x3dcf28be	0.10115193
22	0xbd114b5f	-0.03547227
23	0xbde1dbdd	-0.11028264
24	0xbe481582	-0.19539455
25	0x3d4f04ed	0.050541807
26	0xbe266df4	-0.16252881
27	0x3cac6cbe	0.021047946
28	0xbd22004a	-0.039551057
29	0xbd2a0dc4	-0.041517034
30	0x3bc5601c	0.00602342
31	0x3e285d7b	0.1644191
32	0xbc7ca03c	-0.015419062
33	0x3d7930de	0.06083762
34	0x3e6d1e52	0.23156098
35	0x3d9ac51a	0.075571254
36	0xbd978f8b	-0.074004255
37	0xbca7383b	-0.020412555
38	0xbaba1c38	-0.0014199084
39	0xbd2428c6	-0.040077947
40	0xbb8f4f52	-0.0043734694
41	0x3d52e949	0.05149201
42	0x3d24e319	0.04025564
43	0xbd6f092e	-0.058358364
44	0x3e21dc5e	0.1580672
45	0xbd1cbc12	-0.038265295
46	0x3d2a1b4e	0.041529946
47	0xbc8130fc	-0.015770428
48	0x3e26ff05	0.1630822
49	0x3dbf4e66	0.09341125
50	0xbd57ac91	-0.052654807
51	0x3cf4ccda	0.029882837
52	0x3deeb76e	0.1165608
53	0x3b10b572	0.0022080806
54	0x3e1330b9	0.14374055
55	0x3e47bf49	0.19506563
56	0xbd382712	-0.044959135
57	0x3d556bec	0.052104875
58	0x3e3fdf7a	0.18737593
59	0x3e284fe7	0.1643673
60	0x3d8cf15a	0.06881972
61	0xbd89ad16	-0.06722467
62	0xbcf61688	-0.03004004
63	0xbce0d7d4	-0.027446665
64	0x3db46be4	0.08809641
65	0x3ddb6975	0.10713474
66	0xbe12a34e	-0.14320108
67	0xbcc53fae	-0.024078216
68	0x3c39f597	0.011350057
69	0x3d1cbf46	0.03826835
70	0xbd945b65	-0.072439946
71	0x3c988e86	0.018622648
72	0xbd855316	-0.06509988
73	0xbd9daf34	-0.07699433
74	0xbdf8523a	-0.121250585
75	0xbd6b5694	-0.057455614
76	0xbe08f87e	-0.13376042
77	0x3d99cc55	0.07509676
78	0x3e1fb66f	0.15596937
79	0x3cc9ce40	0.02463448
80	0xbdbb7e35	-0.091549315
81	0x3c9d5473	0.019205308
82	0xbd97f4eb	-0.07419761
83	0x3e0e6eff	0.13909529
84	0x3de73e9d	0.112912394
85	0x3b931d66	0.0044895886
86	0x3c8fdd26	0.017561506
87	0xbda08466	-0.07837753
88	0x3d91aae8	0.07112676
89	0xbd64984d	-0.055809308
90	0xbe30fd72	-0.17284182
91	0x3c8e3876	0.017360907
92	0xbda68b3a	-0.08132024
93	0xbe2e9630	-0.1704948
94	0xbd96fccc	-0.07372436
95	0x3dd3be40	0.10339022
96	0x3d3aab42	0.04557348
97	0x3be32e70	0.006933026
98	0x3dd761fd	0.10516737
99	0x3d226db8	0.039655417
100	0x3d8cb434	0.068703085
101	0xbda3a5ef	-0.07990634
102	0x3c5c8dbf	0.013461529
103	0x3dbd5fa8	0.092467606
104	0xbdf15610	-0.11783993
105	0x3e0996ed	0.1343648
106	0x3da1b4c0	0.078958035
107	0xbd62b5dc	-0.055349216
108	0xbcd14602	-0.025546078
109	0x3da25414	0.07926193
110	0x3e1bf2af	0.15229295
111	0x3cbfd854	0.023418583
112	0xbc1a2d7c	-0.009410258
113	0x3d8aa703	0.06770136
114	0x3e3264bb	0.17421238
115	0x3e3b5b78	0.18296611
116	0xbcb984e7	-0.02264638
117	0xbd45ced6	-0.048292957
118	0x3c71ecf0	0.014765963
119	0x3c54fe47	0.013000078
120	0x3e04010b	0.12891023
121	0xbc27e961	-0.010248513
122	0xbcda4c54	-0.026647724
123	0xbe0f92b5	-0.14020808
124	0xbd33f07e	-0.043930523
125	0xbdf92316	-0.12164895
126	0x3c778404	0.015107159
127	0xbe1b50d5	-0.15167554
128	0xbd42b55f	-0.04753625
129	0xbd15a660	-0.03653562
130	0x3d511a3b	0.051050406
131	0xbce88922	-0.028385703
132	0xbd8ddee2	-0.06927277
133	0x3e13a10a	0.144169
134	0xbc0125a3	-0.007882508
135	0xbe10d6fd	-0.14144512
136	0x3db54480	0.08850956
137	0xbd58a9a6	-0.052896164
138	0x3db673eb	0.08908828
139	0x3d8869e2	0.066608205
140	0x3cbd9d09	0.02314617
141	0xbde5bbbf	-0.1121745
142	0xbe78c5b0	-0.24294162
143	0x3c8d456e	0.01724502
144	0xbe05beef	-0.13061117
145	0x3cea3a16	0.02859215
146	0xbe1d4d34	-0.15361482
147	0xbc1adb38	-0.00945168
148	0x3e08f64f	0.1337521
149	0xbbbdc12c	-0.00579085
150	0xbd95fc30	-0.073234916
151	0xbd581af4	-0.05276008
152	0xbdb0cb32	-0.086325064
153	0x3c3a445f	0.01136884
154	0xbd1c80c3	-0.038208734
155	0xbb897948	-0.004195366
156	0xbda89d56	-0.082331344
157	0xbc806116	-0.015671294
158	0xbd988c85	-0.07448677
159	0xbdc18052	-0.09448303
160	0xbd737bae	-0.059444122
161	0x3d3967bd	0.04526495
162	0x3d1fc139	0.03900263
163	0x3d756bda	0.05991731
164	0xbdb4be60	-0.08825374
165	0x3b11c72d	0.0022243962
166	0x3cf48061	0.029846372
167	0xbd60bf27	-0.054869797
168	0xbd822cf5	-0.06356231
169	0xbb5262ac	-0.003210227
170	0xbd5640f7	-0.05230805
171	0xbc2e0890	-0.010622159
172	0x3d562365	0.05227985
173	0xbdb71ebd	-0.0894141
174	0xbd837af0	-0.06419933
175	0x3e2d505e	0.16925189
176	0xbc13f2eb	-0.009030084
177	0x3e028b65	0.12748487
178	0xbd6501e9	-0.055910025
179	0x3d638f30	0.055556476
180	0xbdf1df34	-0.11810151
181	0x3dec9141	0.115511425
182	0x3ea648cf	0.32477424
183	0xbb469215	-0.0030299474
184	0xbd871fc4	-0.06597856
185	0xbe448864	-0.19192654
186	0x3d4801ad	0.048829723
187	0x3d315920	0.043297887
188	0x3b2e8cc0	0.0026634187
189	0xbcd5e195	-0.026108542
190	0x3dcdae95	0.100430645
191	0x3e1e5050	0.15460324
192	0x3da92c58	0.08260411
193	0xbdbbabde	-0.091636404
194	0xbe384509	-0.17995085
195	0xbd905eaa	-0.07049306
196	0x3dc438ac	0.09581122
197	0x3d83c9cf	0.06434976
198	0xbcc0e003	-0.023544317
199	0x3e0934d9	0.13399066
200	0xbc82b86d	-0.015957082
201	0x3cd15eb9	0.025557863
202	0xbdb256cc	-0.087079614
203	0xbda53875	-0.08067409
204	0x3d7bd4c2	0.0614822
205	0x3ce049e7	0.02737899
206	0x3cf6a7b9	0.030109273
207	0x3dfb5eaf	0.12273919
208	0xbcf1f4d9	-0.029535698
209	0x3e32ce04	0.17461401
210	0x3df7abe7	0.12093335
211	0xbe5298ef	-0.20566152
212	0x3e0f2ca5	0.13981874
213	0xbd9cd9d4	-0.07658735
214	0x3d18a44e	0.03726607
215	0xbe21aa1b	-0.15787546

main.4.conv.conv_encoder.en_conv0.conv2d.weight f4 [24, 1, 3, 3]
0	0xbe5ddb56	-0.21665701
1	0xbefb7a63	-0.4911681
2	0x3f5a258c	0.8521354
3	0xbcac41ca	-0.021027464
4	0x3e975edc	0.2956456
5	0x3e831fdc	0.25610244
6	0xbf1e375a	-0.6180321
7	0xbf340f57	-0.70335907
8	0xbd0c7b58	-0.034297317
9	0xbf103ddb	-0.56344384
10	0x3f4ad85e	0.792364
11	0x3f553674	0.83286214
12	0x3db143f1	0.08655537
13	0xbf534888	-0.8253255
14	0x3bae269a	0.0053146603
15	0xbdbc7ad7	-0.09203117
16	0x3eda602a	0.42651492
17	0x3fa642cd	1.2989136
18	0x3ea453cf	0.3209519
19	0x3f02e2de	0.5112742
20	0xbdfef617	-0.12449282
21	0x3d36679a	0.044532396
22	0xb8cad1b3	-9.67117e-05
23	0x3d13767d	0.03600167
24	0xbf17fee3	-0.593733
25	0x3d586ab8	0.05283615
26	0x3e3327d6	0.17495665
27	0x3f4bbc36	0.7958406
28	0x3ee74a5e	0.45173925
29	0x3e51e17c	0.20496172
30	0x3f38e2e2	0.72221196
31	0x3ecc67cb	0.39922938
32	0xbe4a6bc4	-0.19767672
33	0xbe366209	-0.17810835
34	0xbf27a013	-0.6547863
35	0xbf497098	-0.7868743
36	0x3e9f72c3	0.31142244
37	0xbefffe9c	-0.4999894
38	0x3f064c3b	0.5246007
39	0xbeedef8e	-0.46471828
40	0xbe37a8f5	-0.17935546
41	0x3ea89ec3	0.32933626
42	0xbdcfde02	-0.101497665
43	0x3ed9fb7e	0.42574686
44	0xbeffa409	-0.49929836
45	0xbf89bb97	-1.0760373
46	0xbee008fa	-0.4375685
47	0xbedae838	-0.42755294
48	0xbf2d394b	-0.6766555
49	0x3e00956e	0.12557003
50	0xbd590718	-0.05298528
51	0xbe863c2f	-0.2621779
52	0xbf2775ee	-0.6541432
53	0x3f1de876	0.6168283
54	0xbebc3397	-0.3675811
55	0xbf4dca0e	-0.80386436
56	0xbed1a8ef	-0.409492
57	0x3ccd8ad1	0.025090607
58	0x3ec300d8	0.3808658
59	0x3f324f58	0.6965232
60	0xbf27a1da	-0.6548134
61	0xbedbc6d7	-0.4292514
62	0x3e9345d2	0.28764206
63	0xbf0729cc	-0.5279815
64	0x3ed2aad0	0.41145945
65	0x3ef2bf9f	0.4741182
66	0xbdc083f7	-0.0940017
67	0xbf0595e0	-0.52181816
68	0xbce9f4d1	-0.02855912
69	0xbe02b062	-0.12762597
70	0xbf32585e	-0.6966609
71	0x3e87dfcb	0.26537928
72	0xbf0d18e2	-0.55116093
73	0x3de39b35	0.11113588
74	0xbe8d9977	-0.27656147
75	0x3d22e812	0.0397721
76	0x3e6b2284	0.22962385
77	0xbeaf95db	-0.34294018
78	0xbf3fdf85	-0.7495044
79	0x3f078dde	0.5295085
80	0x3e8220ec	0.25415742
81	0x3dda86e4	0.106702596
82	0xbe925a23	-0.28584394
83	0xbea195ea	-0.31559688
84	0xbf64292b	-0.8912532
85	0xbf80af92	-1.005358
86	0x3c4b27e0	0.012399644
87	0xbec7dabe	-0.39034075
88	0x3f156ac1	0.5836602
89	0x3e1c8c55	0.15287907
90	0xbeadb4ae	-0.3392691
91	0x3e803cc8	0.25046372
92	0xbde9cf17	-0.114164524
93	0x3ec61b95	0.38692918
94	0x3f1a01e9	0.60159165
95	0xbf35b19c	-0.70974135
96	0x3d28bf1f	0.041197892
97	0x3f40163c	0.75033927
98	0xbd71967b	-0.0589814
99	0x3f6b0b2f	0.9181394
100	0xbf015cca	-0.5053221
101	0x3ea0483b	0.31305107
102	0x3f2316a0	0.637064
103	0x3eead229	0.45863464
104	0xbe767af3	-0.24070339
105	0xbc34f6c7	-0.011045164
106	0xbf73dd07	-0.95259136
107	0x3e452649	0.19252886
108	0x3e6e75a2	0.23287061
109	0xbf77cb96	-0.9679502
110	0xbe6ac7c9	-0.22927774
111	0x3db1f88e	0.08689986
112	0x3d26a4ac	0.040684387
113	0x3d8ba09c	0.06817743
114	0xbe72e5d4	-0.23720485
115	0xbf6ae7d6	-0.91760004
116	0xbea24bde	-0.31698507
117	0x3f0a959c	0.54134536
118	0x3f077dda	0.5292641
119	0x3eba907e	0.36438364
120	0x3c1bb8b2	0.009504484
121	0xbefc9467	-0.49331972
122	0xbe9694c5	-0.29410377
123	0xbecaba98	-0.39595485
124	0xbe71ecda	-0.23625508
125	0xbf781613	-0.9690868
126	0x3c68ddd2	0.014213042
127	0x3eb753f9	0.35806254
128	0x3e0c08e1	0.13675262
129	0x3f0ddf9f	0.55419344
130	0xbd3fc007	-0.04681399
131	0xbe47c9c0	-0.19510555
132	0xbd6591e9	-0.056047354
133	0xbc9f3490	-0.019434243
134	0xbbab85d2	-0.0052344585
135	0x3e427d82	0.1899319
136	0x3d9dd162	0.07705952
137	0x3edb28a7	0.42804453
138	0x3f5a775c	0.8533838
139	0x3e19129d	0.14948507
140	0x3f007514	0.5017865
141	0xbf0450bf	-0.5168571
142	0x3c329a77	0.010901085
143	0x3e2a6f1c	0.16643947
144	0xbf21a3c7	-0.6314053
145	0xbefaa052	-0.4895044
146	0x3e10a2aa	0.14124551
147	0x3f4e6ddf	0.806364
148	0x3e2b117e	0.16705891
149	0x3efb2bea	0.4905694
150	0x3f27810e	0.65431297
151	0xbe898372	-0.26858097
152	0x3f27b678	0.655128
153	0xbebd6855	-0.36993662
154	0x3de53413	0.11191573
155	0xbec31626	-0.38102835
156	0xbe4b8ea2	-0.19878629
157	0x3f0c826d	0.54886514
158	0xbdad113b	-0.08450552
159	0x3e17643d	0.14784332
160	0xbdfda39f	-0.12384724
161	0xbe1e748a	-0.15474144
162	0xbe5d1aa8	-0.215922
163	0xbf08be38	-0.5341525
164	0x3ed37a98	0.4130447
165	0x3f48cce2	0.78437626
166	0x3d91023b	0.070805036
167	0xbe54625f	-0.2074065
168	0xbd8b5be2	-0.06804635
169	0x3ec0a86c	0.37628496
170	0x3ea845f7	0.3286588
171	0xbcd08141	-0.025452258
172	0x3a81178c	0.0009848936
173	0xbf1f47c6	-0.6221889
174	0xbea7063b	-0.3262194
175	0xbe51f755	-0.20504506
176	0xbdae9f0a	-0.08526428
177	0xbf143701	-0.5789643
178	0x3e836adc	0.25667465
179	0x3ea71ee8	0.32640767
180	0x3e347dcd	0.17626114
181	0xbf31c837	-0.6944613
182	0xbe8c8f72	-0.2745319
183	0xbf63d741	-0.89000326
184	0x3ecc9943	0.3996068
185	0x3f2dd8fc	0.67909217
186	0x3f3ad4a4	0.72980714
187	0xbd8ee30a	-0.06976898
188	0xbdf3f84b	-0.119125925
189	0x3e45504f	0.19268917
190	0x3dadc023	0.08483913
191	0x3e01d5ed	0.12679262
192	0x3d8765d7	0.06611221
193	0xbe653e78	-0.22387111
194	0xbe1eccca	-0.15507808
195	0x3e9e4e50	0.30919123
196	0x3899b83f	7.329927e-05
197	0xbf4c76c5	-0.7986873
198	0xbeb861db	-0.36012158
199	0xbea16403	-0.31521615
200	0x3ea5033a	0.32229024
201	0xbf520c94	-0.8205044
202	0x3f0a83f9	0.54107624
203	0xbe810037	-0.25195476
204	0x3eff5239	0.49867418
205	0x3e26b8ee	0.16281483
206	0x3e3e5981	0.1858883
207	0xbe32ee07	-0.17473613
208	0x3d798e23	0.060926568
209	0x3ee66eaf	0.4500632
210	0x3f2979ad	0.6620129
211	0xbe7f75b2	-0.24947241
212	0x3f09fb4c	0.53899074
213	0x3e117927	0.14206372
214	0xbb0b934e	-0.0021297517
215	0xbe4046ce	-0.1877701

main.4.norm.weight f4 [24]
0	0x3f6b40f8	0.9189601
1	0x3f746774	0.95470357
2	0x3f81d9a6	1.0144546
3	0x3f6ed53c	0.9329412
4	0x3f7cd7c2	0.9876672
5	0x3f8117ac	1.0085349
6	0x3f8187cd	1.0119568
7	0x3f788bbe	0.9708823
8	0x3f6c99c6	0.9242214
9	0x3f752b67	0.9576935
10	0x3f79ec9a	0.9762665
11	0x3f788cbe	0.97089756
12	0x3f7be9cb	0.98403615
13	0x3f7a8eee	0.97874343
14	0x3f7e40dc	0.9931772
15	0x3f812bf5	1.009154
16	0x3f7b011c	0.9804857
17	0x3f7b3ee8	0.9814286
18	0x3f78d84c	0.9720504
19	0x3f7aae5f	0.9792232
20	0x3f801ff1	1.0009748
21	0x3f7edfb0	0.9956007
22	0x3f80378d	1.0016953
23	0x3f78e48f	0.9722375

main.4.norm.bias f4 [24]
0	0x3eaaf545	0.3339025
1	0x3d582253	0.05276711
2	0x3e0c304d	0.136903
3	0x3e8d33d9	0.2757862
4	0xbe4bfc58	-0.1992048
5	0x3df24f75	0.118315615
6	0xbdb4210b	-0.08795365
7	0x3d13a0d1	0.03604204
8	0x3e027b4c	0.12742347
9	0x3c89ea56	0.016835373
10	0xbd2a62e6	-0.041598223
11	0xbd2576f5	-0.04039665
12	0xbd1cbf64	-0.03826846
13	0x3c5c3f3f	0.013442813
14	0x3e6f7ca3	0.23387389
15	0xbead2dc0	-0.33823967
16	0xbd0bccc5	-0.03413083
17	0x3e426f38	0.18987739
18	0x3e5d542c	0.2161414
19	0x3ccdb3dd	0.02511018
20	0xbbabbc59	-0.0052409586
21	0x3b215f7e	0.0024623568
22	0xbc3eb541	-0.011639894
23	0x3ea7b747	0.32757017

main.4.norm.running_mean f4 [24]
0	0xbeb9209a	-0.36157686
1	0x4012fed6	2.296804
2	0x3f6ae0ed	0.9174946
3	0x3ef7e883	0.4841958
4	0xbe434f5d	-0.19073243
5	0xc05b031f	-3.4220655
6	0xbfe0e7d2	-1.7570746
7	0xbf7ae9ba	-0.9801289
8	0xbf694580	-0.91121674
9	0xc002fc36	-2.0466437
10	0x3f342471	0.70368105
11	0x3f6a6d73	0.91573256
12	0xc02794cc	-2.6184568
13	0xbf22fd0c	-0.6366737
14	0x3f6047af	0.8760938
15	0x40032f0c	2.0497465
16	0x3ff253aa	1.8931782
17	0xbeed67ad	-0.4636816
18	0x3fc90e08	1.5707407
19	0xbfdbc96f	-1.7170848
20	0x3d7217dd	0.05910479
21	0xbf03fe6f	-0.5156011
22	0xbd856ba4	-0.065146714
23	0x3fb69dbb	1.4266886

main.4.norm.running_var f4 [24]
0	0x3fd821ae	1.6885278
1	0x3fd8904c	1.6919036
2	0x3fb201df	1.3906821
3	0x3fb81d53	1.4383949
4	0x3f7c91c2	0.9865991
5	0x41068bad	8.409101
6	0x403f576a	2.9897103
7	0x4017e2ab	2.3732097
8	0x3f043c71	0.51654726
9	0x40058f0a	2.0868554
10	0x4029e196	2.6543937
11	0x4047687e	3.1157527
12	0x3fcdd988	1.608201
13	0x40836dbb	4.107145
14	0x3efc93c8	0.49331498
15	0x400c7866	2.1948485
16	0x40a3679d	5.106398
17	0x3fcd1608	1.6022348
18	0x3f44ccc1	0.7687493
19	0x3ff6798a	1.9255841
20	0x3fbc02e8	1.4688387
21	0x3fd703b5	1.6798006
22	0x3f89adf2	1.0756209
23	0x3f2ff1b1	0.68728167

main.4.activation.theta f4 [1, 24, 1, 1]
0	0x3d41d5b6	0.04732295
1	0xbe00f566	-0.12593612
2	0x3dfee6df	0.12446379
3	0x3da81ddf	0.082088225
4	0xbd03ca33	-0.032175254
5	0x3db9de1e	0.090755686
6	0x3db4d42f	0.08829533
7	0x3c60dee9	0.013725021
8	0x3db36977	0.0876035
9	0x3d33b03b	0.04386924
10	0xbd344308	-0.04400924
11	0xbdedaf86	-0.11605744
12	0xbd751487	-0.05983403
13	0xbdb4de37	-0.088314466
14	0x3c8e9a86	0.017407667
15	0x3e1b86e0	0.1518817
16	0x3e0d1bff	0.13780211
17	0xbd163990	-0.03667599
18	0x3d329e53	0.04360802
19	0x3de2a1d7	0.11066025
20	0x3d3fdef7	0.046843495
21	0xbdfe5f47	-0.124205165
22	0xbe019caa	-0.12657419
23	0x3d3a3c85	0.045467872

main.5.conv2d.weight f4 [1, 24, 1, 1]
0	0xbe331164	-0.17487103
1	0xbd0e2338	-0.034701556
2	0xbe6257f9	-0.22103871
3	0xbd1d6ed9	-0.03843579
4	0x3e8a5210	0.27015734
5	0x3cfd2353	0.030900633
6	0x3e83e1bb	0.25758156
7	0x3e8ca30c	0.27468145
8	0xbda09246	-0.078403994
9	0xbe99e6c7	-0.30058882
10	0x3ea33ea4	0.31883729
11	0x3c22b715	0.0099313455
12	0x3de023f4	0.109443575
13	0xbdf7b284	-0.12094596
14	0xbf05bbf1	-0.522399
15	0x3d86d7e1	0.065841444
16	0xbdcfeb79	-0.10152335
17	0xbe9fe9b7	-0.31232998
18	0xbe0275de	-0.12740275
19	0x3e12a623	0.14321189
20	0xbec0b18a	-0.37635452
21	0xbd39fcd2	-0.045407124
22	0x3d3fc966	0.046822928
23	0xbd65cd4c	-0.05610399
